…
  11000011 (decimal 195)  →  encoded 24
  11001000 (decimal 200)  →  encoded 25
  11001100 (decimal 204)  →  encoded 26
  11001111 (decimal 207)  →  encoded 27
  11100000 (decimal 224)  →  encoded 28
  11110000 (decimal 240)  →  encoded 29
  11110010 (decimal 242)  →  encoded 30
  11111000 (decimal 248)  →  encoded 31
  11111011 (decimal 251)  →  encoded 32
  11111111 (decimal 255)  →  encoded 33
  
_________________________________________________________________
 Layer (type)                Output Shape              Param #
=================================================================
 conv2d (Conv2D)             (None, 129, 59, 32)       320

 max_pooling2d (MaxPooling2  (None, 64, 29, 32)        0
 D)

 conv2d_1 (Conv2D)           (None, 64, 29, 64)        18496

 max_pooling2d_1 (MaxPoolin  (None, 32, 14, 64)        0
 g2D)

 conv2d_2 (Conv2D)           (None, 32, 14, 128)       73856

 max_pooling2d_2 (MaxPoolin  (None, 16, 7, 128)        0
 g2D)

 flatten (Flatten)           (None, 14336)             0

 dense (Dense)               (None, 128)               1835136

 dropout (Dropout)           (None, 128)               0

 dense_1 (Dense)             (None, 34)                4386

=================================================================
Total params: 1932194 (7.37 MB)
Trainable params: 1932194 (7.37 MB)
Non-trainable params: 0 (0.00 Byte)
_________________________________________________________________